mp6_Neural_Nets/net.model (torch, 450799 bytes, 16 tensors)

weight f4 [8, 3, 5, 5]
000000 15 26 1b 3d bd 11 d8 3c 15 a0 19 bd 39 70 87 3c
       0.037878115 0.026375646 -0.03750618 0.016533004
000010 26 0b 12 bd d8 c7 b7 3c a8 8e 09 bd db bf d3 3a
       -0.035655163 0.02243416 -0.033583313 0.00161552
000020 e1 da 5a 3b 70 9e a8 bd b3 3e 76 3d 91 0c d7 3c
       0.0033394622 -0.082333446 0.06011839 0.02625111
000030 18 65 9f 3c f8 7d 7c bd 81 a3 6f bd 70 fd 00 3c
       0.019457385 -0.06164357 -0.05850554 0.007872924
000040 33 69 93 3d e4 8e 0d 3c a7 56 bc bd 19 2a 97 bd
       0.071977995 0.008640025 -0.09196215 -0.07381076
000050 69 b7 a1 ba 9b 54 06 3d 0e a7 09 bb ef be c8 bc
       -0.0012337986 0.03279553 -0.0021004113 -0.024505107
000060 d7 6a f5 bd 3c a4 e1 3c 31 36 a8 3c 4d 51 8b bc
       -0.11983269 0.027544133 0.020533653 -0.01700654
000070 8e 13 f1 3b ef f4 64 bd 31 99 ae 3d ed 16 7c bc
       0.0073570674 -0.05589765 0.08525313 -0.015386325
000080 ef 6d 17 3d 34 e8 0a bc e8 e3 71 bd 3e 4b b2 3d
       0.036970075 -0.008478213 -0.05905524 0.087057576
000090 de 38 6c 3d b4 8c 47 3d ac 71 36 bd 0b 08 b0 bd
       0.05767142 0.04871817 -0.044542 -0.08595284
0000a0 64 e8 81 3d 47 1b 6d 3d 82 90 33 3d d8 0f 94 bc
       0.06343153 0.05788734 0.043838985 -0.018073961
0000b0 e5 0b 6e bd 4c 0f fd 3c bc 75 aa 3d 0d bb 25 3d
       -0.058116812 0.030891083 0.08323237 0.04046159
0000c0 48 f3 6b bc d9 11 da bd 26 b7 4e ba a9 b1 10 3c
       -0.0144012645 -0.106479354 -0.00078855676 0.00883142
0000d0 f5 63 18 bd 58 83 6c 3c 86 19 17 bd a3 1a 94 3d
       -0.0372047 0.014435612 -0.036889575 0.07231643
0000e0 f5 a2 16 3d 8d 14 f4 ba 30 ce a7 bb 1f e5 e2 bd
       0.0367765 -0.0018621847 -0.005121015 -0.11078858
0000f0 89 f5 ab 3d a4 b8 19 3d c2 d4 ea 3c 48 4e a8 bd
       0.083964415 0.037529603 0.028665904 -0.08218056
000100 76 ec bc bd 07 7b 7d 3d 56 20 f0 3d b4 08 56 3a
       -0.09224789 0.061884906 0.117249176 0.0008164749
000110 33 75 ca bd 41 0e 0e be ee d7 b3 3d 6f 4e 91 3d
       -0.09885635 -0.13872625 0.0878142 0.07095038
000120 db 06 70 3d bd ec c6 bd 4f 82 25 be bd 80 ae 3c
       0.058600288 -0.09713123 -0.1616299 0.021301622
000130 f3 8e 3c 3d e5 af b6 3d d5 20 73 3d 57 c8 37 3d
       0.046034764 0.08920268 0.059357483 0.044868793
000140 0c 95 61 bd 02 b8 2d bd 4c 7d 5c 3c bc 7d 1b bd
       -0.055073783 -0.04241181 0.0134576075 -0.037961707
000150 11 7d ca bc da da a5 bd ea 58 f5 bc b1 fc a2 bd
       -0.02471784 -0.08098383 -0.029949624 -0.07958353
000160 15 2c 8f bd 01 f3 54 bd bd d2 06 bd f1 59 1e bd
       -0.0699083 -0.05198956 -0.03291582 -0.038659994
000170 da 45 1a bb 6c 1f 38 3c 97 aa 33 bd 7e 62 b0 bc
       -0.002354017 0.01123796 -0.04386386 -0.02153134
000180 47 7e 20 3d db 70 7a bc 42 92 50 bb 92 bb 71 bc
       0.039182927 -0.015285696 -0.0031825458 -0.014754193
000190 21 80 97 3c 64 ed 8c 3d 79 0f 2f 3d 37 47 4d bc
       0.018493714 0.06881216 0.042739365 -0.012529186
0001a0 9c 88 8a bc 3d db 52 bd c5 78 2e bd 94 48 06 bd
       -0.016910844 -0.051478613 -0.042595644 -0.03278406
0001b0 48 45 7d bd 5b 79 a8 bd 3b ac 00 bb 38 f3 9b bc
       -0.06183365 -0.08226272 -0.0019633907 -0.019036874
0001c0 d4 71 37 bc 0b dd 86 bd 0a c2 95 bd 08 1c 9c bc
       -0.011196572 -0.06585129 -0.07312401 -0.019056335
0001d0 cd 40 85 3c c8 04 dd bc 7f 8c ff 3a 68 3a 65 bb
       0.016266251 -0.026979819 0.0019496827 -0.003497744
0001e0 c3 9a 14 3d 1c a6 bb 3c 66 86 0c 3d 7b 03 c4 3c
       0.036280405 0.022906356 0.03430786 0.02392744
0001f0 bf 6c 15 3d 8d 20 aa 3b 9c 60 df 3c 70 14 a3 bb
       0.03648066 0.0051918686 0.027267747 -0.0049768016
000200 b5 af 02 3d 3e 40 3b bd 33 0d 73 3c 67 b7 9e 3b
       0.03190585 -0.045715563 0.01483469 0.0048436406
000210 47 96 4a bd e7 29 f6 ba 07 e7 94 bd e9 80 4d bd
       -0.049459722 -0.0018780798 -0.072706275 -0.050171766
000220 9e 9f 5c bd 3a 57 7d bd 1d f6 52 bc 05 a8 56 bd
       -0.05386316 -0.061850764 -0.012876061 -0.05240633
000230 b2 90 9d 3c a3 31 95 bc 81 6e 29 3d dc c6 29 bc
       0.019234035 -0.018212145 0.04136515 -0.010362353
000240 7b 94 7f 3c 74 ba 42 3d 47 fe 74 3d 1d e4 88 3d
       0.015599365 0.047541097 0.05981281 0.06684134
000250 de aa af 3d b0 0f f4 3c ad 70 a7 3c 9c bd 07 bc
       0.08577512 0.029792637 0.02043947 -0.0082849525
000260 fb 65 86 3c 74 ee 5a bc bc e9 39 3d 77 b6 b4 bb
       0.01640605 -0.013362516 0.045388922 -0.0055149156
000270 4c d5 3c 3d 2d 49 68 3c c6 d2 c9 3a e9 ba b3 bc
       0.046101853 0.014177603 0.0015397898 -0.021939712
000280 4b 02 8c 3d 25 85 19 3d dc bd 1a bc c0 24 8e bd
       0.06836375 0.037480492 -0.00944468 -0.06940603
000290 39 48 ca 3a 1e ab 8e 3c 86 93 04 3c 49 23 3c 3d
       0.0015432901 0.01741558 0.008091813 0.045932088
0002a0 77 1f 07 bc 92 7b 81 bd f9 bd 51 3c d2 62 40 3d
       -0.008247248 -0.06322397 0.012801641 0.046969242
0002b0 cf e1 8b 3d d9 f3 ae 3b 8e 78 25 bd 12 e0 4a bb
       0.06830179 0.0053391275 -0.040398173 -0.003095631
0002c0 63 e8 94 bc b6 fd 1f 3d d4 c5 63 3d f4 5f ac bc
       -0.018177217 0.039060317 0.055608585 -0.021041848
0002d0 31 e7 34 3d 43 d5 71 3d 69 b5 b1 3c 0e 6f 3e bc
       0.044165794 0.059041273 0.021692948 -0.011623157
0002e0 37 08 1a 3d 7e 65 81 3d a3 21 73 3d 8b b9 a1 ba
       0.03760549 0.06318186 0.05935825 -0.0012338621
0002f0 15 22 b4 bc 09 df 0b 3c 1e 8f c4 3c 0f ed e2 3c
       -0.021988908 0.008537062 0.023994025 0.027700929
000300 08 77 6d 3d d8 3d 26 3d 86 46 ba bc 1b d7 09 3d
       0.057974845 0.040586323 -0.022738706 0.033652406
000310 89 e5 84 3d 5b 65 86 3d 5f 77 4b 3d 64 61 9b 3c
       0.06489093 0.06562301 0.049674388 0.018967338
000320 5d 46 66 bd ef b0 05 bd 7d 3f d8 3c 74 05 2d 3b
       -0.056219447 -0.03263944 0.026397461 0.0026400955
000330 d0 5e ce bc 61 59 1a bc 19 76 ef bb 6c 23 3c bd
       -0.025191694 -0.009420724 -0.0073077795 -0.04593222
000340 1e b1 1f bd d6 76 53 bb 39 84 51 3d fb 05 33 3d
       -0.03898727 -0.0032266877 0.051151488 0.043706875
000350 62 c7 5b bd 95 37 86 bd 1f b5 14 bd 40 59 5e 3d
       -0.053656943 -0.0655357 -0.036305543 0.054284334
000360 b0 89 d9 3c 72 31 15 bb d4 6a 02 bc 94 7b 8e bd
       0.026554912 -0.0022765067 -0.00796004 -0.069571644
000370 d5 44 44 bb cc 00 96 3d 6a 9a c0 3c d6 a3 01 bb
       -0.0029948254 0.07324371 0.02351113 -0.0019781492
000380 98 d8 94 bd e2 96 9a 3b 39 e2 5a 3c 80 28 47 ba
       -0.072678745 0.0047176937 0.0133596 -0.00075972825
000390 a2 30 5b bd a7 ed 8a bd c5 ea 77 bd e4 20 ce 3b
       -0.053513177 -0.0678361 -0.060526628 0.006290542
0003a0 fd 06 0d bc 3e d4 52 3c bb 04 44 3c 3b 18 ca 39
       -0.008607623 0.012867985 0.011964018 0.00038546495
0003b0 dd 71 b0 bc a3 ae 75 bd 85 e2 29 bd fa e4 c1 bc
       -0.02153867 -0.059981 -0.04147579 -0.023668755
0003c0 07 fb 6a 3b 9c 3b 3f bd fd 8b 24 bd ac 8f b1 bc
       0.003585519 -0.046687707 -0.040172566 -0.021674953
0003d0 41 c2 c7 3c 97 d6 8b bd 12 09 97 bd c1 33 00 bd
       0.02438462 -0.06828039 -0.07374777 -0.031299356
0003e0 12 9b ba bc d1 b0 2a 3d e2 8d c8 bc 9f 5d 12 bd
       -0.022779021 0.04167253 -0.024481717 -0.035733815
0003f0 78 ab a9 bc c9 7f 47 bd 16 79 31 bd d9 b6 47 bd
       -0.020711645 -0.04870585 -0.043328367 -0.04875836

bias f4 [8]
000000 f3 2c ce bb 70 ef 48 bd f0 ae f2 3b 52 76 d7 3c
       -0.0062919795 -0.04905647 0.007406108 0.026301537
000010 05 e7 21 3c 8a 0c 76 3d 96 2e 19 bc b9 81 16 be
       0.0098817395 0.060070552 -0.009349486 -0.14697923

weight f4 [16, 8, 5, 5]
000000 14 7f b1 3c 17 b2 d7 3c e8 55 6f 3c d3 46 ae bc
       0.02166704 0.026330037 0.014607884 -0.021274006
000010 4a 5f b2 bc fe c8 de 3c 0d ff 6b 3c fd f1 4f 3b
       -0.021773953 0.02719545 0.014404071 0.003172993
000020 9d 7f f0 3a 42 2a c5 bc c9 2e d3 bb f4 54 00 3d
       0.0018348579 -0.024068002 -0.006444786 0.031331018
000030 48 6f 5c 3a a2 ee b4 39 d1 ed b6 bc 4d 0d 2c bc
       0.0008408916 0.0003451007 -0.022330197 -0.010501218
000040 32 ad f2 3b 4f a0 12 bc 41 8d 46 3b ad 67 3b 3c
       0.0074059004 -0.008949353 0.0030296596 0.011438292
000050 54 10 9e bc 4f 67 58 3c bf b4 29 bc af 81 a2 bb
       -0.019294895 0.013208224 -0.010358035 -0.004959307
000060 7d d9 56 3c 36 2e 52 3c 68 53 47 bc 88 5b 74 bc
       0.013113377 0.0128284 -0.012165882 -0.014914401
000070 19 af dd bc b5 16 86 bc 3d 7b 03 bd 12 94 73 bc
       -0.027061032 -0.01636825 -0.03209995 -0.014866846
000080 7c 3a 43 bb a5 dc ff bc 4f 9f 34 3c 17 68 d6 3a
       -0.0029789498 -0.031233141 0.01102431 0.0016357925
000090 bb c9 1b bd f4 f8 d7 bc b4 26 e1 bb 45 d2 9e bc
       -0.038034182 -0.026363827 -0.006871069 -0.019387374
0000a0 f2 35 a1 bc 6d 01 f2 bc 01 a5 48 3a e6 ce f0 bc
       -0.019679043 -0.029541695 0.0007653982 -0.029395532
0000b0 df 49 5e 3b 5f a9 7e bc e4 fa 43 bc 3f 25 3c 3b
       0.0033918542 -0.015543311 -0.011961672 0.0028708724
0000c0 63 dc ae bc 75 c7 e8 bc 6a 70 da ba 01 38 a9 3c
       -0.021345323 -0.028415421 -0.0016665582 0.020656588
0000d0 00 ce a3 bc 10 9a 9a 3a 7c f8 e0 bc f0 1e 6d 3c
       -0.01999569 0.0011795182 -0.027462237 0.014472708
0000e0 dd 96 2d 3c 2e 0a 4a 39 42 6d 1f 3c 33 ac cd ba
       0.010595051 0.00019268013 0.009730639 -0.0015691578
0000f0 9c a3 7b 3c 65 a6 91 bc e5 ec a2 ba 20 3b 50 3c
       0.015358832 -0.017779538 -0.0012430219 0.012709409
000100 db a9 ca 3c 0d 06 80 3c ec 7c 85 bc 5c cc bd 3c
       0.024739197 0.015627885 -0.016294919 0.023168735
000110 36 6b 4c bb ff bb ad bb 04 f6 a9 bc 60 c7 b0 ba
       -0.0031191832 -0.005301952 -0.020747192 -0.0013487153
000120 5b e2 9e 3c 96 0b f4 3b 04 10 32 bc ff fb a1 3b
       0.019395044 0.00744767 -0.010868076 0.0049433704
000130 2c 99 1e bc 30 35 cc 3c d3 88 a8 bc 23 e9 06 bc
       -0.009680074 0.024927706 -0.020573055 -0.008234295
000140 47 07 ff bc 65 5d 85 bc 74 48 57 3b bc 38 a5 3c
       -0.0311314 -0.016279886 0.0032849582 0.020168655
000150 9a fd 82 37 dc 71 60 3c a1 95 ac bb 03 e7 ce 3b
       1.56153e-05 0.013699021 -0.0052668606 0.00631416
000160 83 32 51 3c bd f3 6d 3c 04 55 c4 bc 38 0d 50 3c
       0.012768391 0.014523444 -0.02396632 0.012698464
000170 8e e8 e0 3b ce 5e 8b bc 34 a1 9b bc 6e 90 dd bc
       0.00686366 -0.01701298 -0.018997766 -0.027046409
000180 bc 57 d4 ba 71 19 da bc a1 86 be 3b e0 5b f3 3a
       -0.0016200463 -0.02662346 0.005814389 0.001856681
000190 66 b1 bd bc 8b 07 ff 3b 9c ee 28 bb 5c 55 2d 3c
       -0.02315588 0.0077828816 -0.0025776988 0.010579433
0001a0 c6 3b 48 3c 15 f3 f2 bc 95 9e be 3c 13 af 9f 3c
       0.012221282 -0.029656926 0.023268977 0.019492662
0001b0 3b f6 de 3b 18 78 d2 bc 69 ae 62 bc 09 cf 2d bc
       0.0068042553 -0.02569203 -0.013835528 -0.010608443
0001c0 12 3c 0c bc 40 cc 4f 3c fe 6a d2 3b 8e 46 4f 3c
       -0.008559244 0.012682974 0.006421446 0.012651099
0001d0 c0 b2 6f bc 5c af 9d 3b 2c ab c4 3b a1 4e ca bc
       -0.01463002 0.004812164 0.0060018506 -0.024695696
0001e0 68 ee ef bc c9 b6 86 bc 33 e1 4f 3c 37 96 de bc
       -0.029288486 -0.01644458 0.012687969 -0.027171237
0001f0 ab 66 d0 bc ca cb 1b 3c 34 a0 0c 3c 17 68 79 3c
       -0.02543958 0.009509036 0.008583117 0.015222571
000200 54 48 c2 bc 77 cb bb bc 7b 52 2c 3c 81 c2 a0 3c
       -0.02371613 -0.022924168 0.010517712 0.019623997
000210 7f e3 49 3c e1 ae 79 39 c6 7d 92 3b e3 57 b7 3c
       0.012322306 0.00023811638 0.00447056 0.022380775
000220 bc 72 94 bc 15 a2 68 bc ee 4a 54 3c 9f 69 b2 bc
       -0.018121116 -0.0141988 0.012957318 -0.02177888
000230 07 a7 8f bc 2e f4 79 3c 6f fb a8 3b c6 fe 14 3b
       -0.0175357 0.015255971 0.0051569263 0.0022734865
000240 9f 34 80 bc b4 90 1e bb c2 12 b4 3c 62 fd 8d bc
       -0.015650092 -0.0024195137 0.0219816 -0.017332736
000250 d7 2f 3f bb fc 62 f3 3b 6b d2 88 bc ca 4d bd 3c
       -0.0029172802 0.0074275713 -0.016701898 0.023108382
000260 06 e8 65 bc 0f 7d d2 bb e7 8e eb bb e4 27 68 bc
       -0.0140323695 -0.0064235996 -0.007188666 -0.014169667
000270 ac 2a cc bc d3 ad 6e 3c 5a 30 01 3c 4f 42 b8 bc
       -0.024922691 0.01456781 0.007885063 -0.022492556
000280 2c e6 75 bc a8 19 cb 3c 51 75 35 3c 23 ab 2d 3c
       -0.0150084905 0.024792507 0.011075334 0.010599884
000290 4d cd 79 bc ef f6 06 bc 4a 7a 10 bb b0 ed 95 bb
       -0.015246701 -0.0082375845 -0.0022045546 -0.0045754537
0002a0 ef 23 8d bc 11 98 70 3b f6 30 8e 3b 35 3e 0e bb
       -0.017229049 0.0036711732 0.0043393327 -0.0021704559
0002b0 aa 20 8e 3b 54 1c 0e bc 85 7f fa 3b e2 13 70 3b
       0.00433739 -0.008673746 0.007644596 0.0036632945
0002c0 6d 27 9f bc 23 a3 e9 bc 67 8e e0 3b 76 af 88 3a
       -0.01942798 -0.028520172 0.006852913 0.0010428268
0002d0 b8 cd 9f bc 3d d4 7a 3c d1 52 a0 bc d8 cc 1a 3c
       -0.019507274 0.015309391 -0.01957074 0.009448253
0002e0 cf 10 0b 3c c8 60 d0 bc 2c 89 39 3c 68 40 e0 bc
       0.008487894 -0.025436774 0.011324208 -0.027374461
0002f0 25 c2 98 bc 9d 39 fb bb b1 8c 95 bc 42 d0 c7 3c
       -0.018647263 -0.00766678 -0.018255563 0.024391297
000300 ef e9 e0 bb 41 ac de 3b 42 d2 c3 bc f1 bb 2c 3c
       -0.0068638246 0.0067954366 -0.02390397 0.010542856
000310 03 72 21 bc 0e 26 b4 bc e6 d7 b6 ba 81 6b f5 3b
       -0.009853843 -0.021990802 -0.0013949841 0.007489622
000320 c7 92 94 3d 1c b0 c3 3c 47 d9 ac 3b ce 48 16 bb
       0.07254558 0.023887686 0.005274925 -0.0022931579
000330 be 4b 09 3d 32 54 64 3d b8 2a 39 3d 72 f7 4a 3b
       0.0335195 0.055744357 0.045206755 0.0030970243
000340 6a c9 08 3c 34 56 a4 3c 80 da b3 3c 62 9d 29 3d
       0.008348802 0.020060636 0.021954775 0.041409858
000350 13 d8 e5 3c 95 7e e4 3c b0 89 d8 bc 03 8f ab 3c
       0.028057134 0.02789239 -0.026432842 0.020942217
000360 d9 c8 ae 3c b1 17 ad 3c f8 03 08 3d 3f 71 47 bc
       0.021336006 0.021129461 0.03320691 -0.012172996
000370 14 1e 8c 3d 65 c3 42 3d 14 10 a1 3d d5 5e 1d 3d
       0.068416744 0.047549624 0.07864395 0.038420517
000380 c8 7e 25 3c 2e a3 59 3b e4 4f 61 bc c2 48 af 3b
       0.010101028 0.0033208835 -0.013751958 0.0053492496
000390 a1 d6 e9 bc fe ac bb bc 83 be 8e 3c d7 1b 23 3b
       -0.028544726 -0.022909638 0.017424827 0.002488842
0003a0 ea cc 7b 3b 42 1f f2 bc f1 c1 13 bd 91 00 5a bc
       0.00384217 -0.02955592 -0.03607363 -0.013305799
0003b0 90 bd 3c ba 67 59 a1 bc 64 79 d4 bc a9 36 3e bd
       -0.0007199878 -0.01969595 -0.02593679 -0.046438847
0003c0 ab d7 62 bb 6e 0d 71 3c a9 33 d2 bb 4b 8b 31 bd
       -0.0034613411 0.014712675 -0.00641485 -0.04334573
0003d0 8b 42 70 bd fc 28 af 3b 18 f3 b4 bc d0 36 1b bc
       -0.05865721 0.005345462 -0.022088572 -0.009473518
0003e0 d7 4b e5 bc 4f 3f 3b bd ca 2b e7 3c 90 23 ac 3c
       -0.027990265 -0.045714673 0.028219122 0.021013051
0003f0 22 9a 79 bb 54 51 a1 bb 69 0d c2 3d 17 13 a2 bb
       -0.0038086255 -0.004923025 0.09475214 -0.0049461233

bias f4 [16]
000000 70 c6 28 3c 2f f6 47 3d 98 8a ac 3c 7b 75 48 3d
       0.010301217 0.048818763 0.02106218 0.048940163
000010 c1 53 58 bc 6e 7b 6b bc f8 c5 15 bb 0e 63 b3 3b
       -0.013203562 -0.01437269 -0.0022853594 0.0054744547
000020 cd 25 96 3c 0b e8 84 bc 68 ea c5 bc 4e fa 95 bb
       0.018328572 -0.016223928 -0.024159625 -0.004576958
000030 33 69 84 bc 72 a4 2f bb cf c0 96 3b 67 b7 21 ba
       -0.016163444 -0.0026800898 0.0046006213 -0.00061689917

weight f4 [128, 400]
000000 2b 39 7e bc a1 45 7a 3c c5 2f f8 bb a4 72 c2 3b
       -0.01551656 0.01527539 -0.007574054 0.0059340764
000010 12 53 4e 3c a4 71 05 3c 60 83 4a 3c 63 ce 20 3c
       0.012593048 0.00814477 0.012360424 0.009814831
000020 c7 5c 4e 3c e9 89 4e 3b c9 2a 2e 3c b2 03 01 bc
       0.012595362 0.0031515306 0.010630318 -0.007874416
000030 32 39 0e bc 58 f2 fd 3b f1 42 9d 3b f9 35 c4 ba
       -0.008680629 0.007749837 0.00479924 -0.0014969698
000040 ba b2 6d bc 09 9c e6 3b 92 6f 4e 3c 05 39 02 bb
       -0.014507944 0.007037644 0.012599843 -0.0019870412
000050 d1 45 ad 3b 95 4a 09 3c 6d 1c 90 bc c6 cb 00 bb
       0.005287864 0.008379598 -0.01759168 -0.0019652708
000060 b1 59 f7 bb 03 66 2a bc 93 b6 89 3b a6 9b 32 3c
       -0.007548534 -0.010400298 0.0042026727 0.010901367
000070 58 8c 87 3b d2 08 85 3b 67 dc ab bc 50 d5 23 bc
       0.0041366033 0.0040598894 -0.02097912 -0.009999588
000080 ba 0d 33 bc e8 c4 a3 bc 57 7d a0 bb 67 59 16 bb
       -0.010928566 -0.019991353 -0.004897754 -0.0022941472
000090 54 a4 10 bc fc 29 ca bb a3 3f a3 ba 49 32 29 3c
       -0.008828241 -0.0061695557 -0.0012454878 0.01032693
0000a0 79 bb f6 bb 40 35 ec bb 1e 7d 2f bc 85 ac bb bb
       -0.0075296727 -0.0072084963 -0.010710983 -0.005727353
0000b0 9e 84 94 bc d2 43 00 bc 31 9d b6 bc 7a 9a c3 bc
       -0.018129643 -0.00782867 -0.022291752 -0.023877371
0000c0 77 b8 bd bc 44 6a 32 3b 0b b4 8f bb 19 5f b3 3a
       -0.023159249 0.0027223984 -0.0043854765 0.0013684958
0000d0 15 62 8a 3b 34 f4 72 3c 1e 55 18 3c 54 ff 14 bc
       0.004223118 0.01482873 0.009297637 -0.009094078
0000e0 ac 2c 96 3c b9 0e 93 bc 30 26 8e 3b 9d 57 c5 3c
       0.018331848 -0.017951356 0.0043380484 0.024089629
0000f0 a2 1e c0 3c 93 12 c7 3a dc 7f c5 bb f5 bf 47 3c
       0.023452107 0.0015188031 -0.006027205 0.012191762
000100 5c 44 a4 3c a6 5f 87 bb 16 6c 38 3b fe 0b 07 bc
       0.020052128 -0.004131275 0.0028140596 -0.008242605
000110 1e 74 0b 3c 00 9b 52 3c 3c 44 81 3c d0 e3 91 bb
       0.008511571 0.012854338 0.015779607 -0.004452206
000120 76 ed 80 bc c2 23 9f bb 79 4b 9d bb 69 6a a8 bb
       -0.01573823 -0.0048565576 -0.004800257 -0.005139638
000130 9c 37 8d 3b 46 43 34 bc ed f3 dd b9 78 3c c8 bc
       0.0043096077 -0.011002367 -0.00042334144 -0.024442896
000140 87 b4 5c bc ac df 8a bc 77 15 09 bc 22 44 3b bc
       -0.013470775 -0.016952358 -0.008366934 -0.011429818
000150 ca 39 80 3a b9 f8 80 3b 97 12 31 3c 98 90 ae 3a
       0.0009782847 0.0039359 0.010807655 0.0013318239
000160 79 d7 34 bb 69 6e 37 bb 77 44 27 3a a8 41 6f bc
       -0.0027594252 -0.0027989394 0.00063807465 -0.014603056
000170 8e 69 f3 3b 3f db a4 bc fd 6f 61 bc 7d 8c 79 ba
       0.0074283546 -0.020124076 -0.01375961 -0.00095195306
000180 2d 30 7d bc 76 53 80 bb 81 33 f4 3b 92 e9 b3 3b
       -0.0154533805 -0.0039161993 0.007452429 0.0054904902
000190 6d ae 80 3c 5f 91 3e bc 93 3f 3b bc 40 17 a4 bb
       0.015708173 -0.011631339 -0.0114287315 -0.0050076544
0001a0 08 82 00 bc 09 8c 06 bc 21 13 67 ba 0d ef 7f 3c
       -0.007843502 -0.008212098 -0.0008814801 0.015620959
0001b0 b2 5e 1e bc 26 d2 1f 3c ac 66 23 3c eb 24 49 3c
       -0.009666132 0.009754693 0.009973209 0.012276868
0001c0 e7 b3 1b 3c 4c 47 3a bb 6b 9b 40 3c 0d 56 01 bc
       0.009503341 -0.0028423844 0.0117558045 -0.007894051
0001d0 6a 00 e4 bb 2b d4 98 3c 84 f7 91 3c 94 56 29 bc
       -0.006958057 0.018655857 0.01781822 -0.010335583
0001e0 58 bd 69 3c b3 f2 a2 3b 7d 91 59 3b ae ac 7a 3c
       0.0142663345 0.0049727797 0.003319829 0.015299959
0001f0 33 d2 86 ba b3 25 9d bb e0 49 54 3c 19 20 e0 bb
       -0.0010286033 -0.004795754 0.012957066 -0.006839764
000200 95 39 a4 bb 7b 0e 0a bc 1b c8 4a 3c 7b d2 eb 3b
       -0.005011747 -0.008426304 0.01237681 0.007196722
000210 28 1f ac bb 74 e3 2a ba d7 cc 2f ba 95 ae 8c bc
       -0.0052527376 -0.00065188785 -0.0006706244 -0.017173091
000220 21 7b 14 ba 51 e4 7f bc 7a 1d 06 bb 92 cc 72 bb
       -0.00056640996 -0.0156184 -0.0020464347 -0.0037048203
000230 6c dd 2d bc 40 6c 42 3c 54 d5 96 3b 06 2c fa 3b
       -0.010611873 0.011866629 0.0046030674 0.0076346425
000240 29 19 5d bc 0e 98 14 3a 57 c3 fe 39 e8 20 5e 3b
       -0.013494768 0.000566841 0.00048592195 0.0033894125
000250 f8 55 0d bc e6 10 0d bc 71 14 73 bc e6 4e 19 3c
       -0.008626454 -0.008609986 -0.014836417 0.00935719
000260 39 9c 0e 3c ca c6 0b 3c e3 4d db 3b 00 c4 0f 3c
       0.008704239 0.008531282 0.0066926344 0.008774757
000270 6e 72 63 3c c5 5d 20 3b 67 82 9d 3b 65 a1 9a 3b
       0.013882263 0.0024469953 0.004806805 0.0047189468
000280 d4 7c 55 bc 4f fa 74 3b 25 48 43 3b e5 77 6d bc
       -0.01303025 0.003738064 0.002979764 -0.014493917
000290 78 5b 19 bc 28 50 5b bc 3c f8 47 bc bd 34 42 3c
       -0.009360187 -0.01338581 -0.01220518 0.011853394
0002a0 23 bf 52 3c ed 42 b8 bb 77 1d 90 3b d8 d9 b7 bb
       0.012862953 -0.0056232125 0.0043980437 -0.005610686
0002b0 3c 75 2f 3b 6c 4a cf bb 86 55 61 bc 4f a7 96 bb
       0.0026772758 -0.0063260105 -0.0137533005 -0.0045975815
0002c0 27 5c ab 3c 7e cb b7 3b 3f da 19 bc 6c e8 0f 3c
       0.020917965 0.005608975 -0.009390413 0.008783441
0002d0 70 99 40 bc f0 ef b9 3b 4c 3b 98 3c 35 3e 0b 3c
       -0.011755332 0.0056743547 0.018582962 0.008498718
0002e0 31 d2 7b 3c c5 50 19 bc 62 bd 56 3b 09 2e 7b 3c
       0.015369938 -0.009357636 0.003276669 0.0153308
0002f0 f4 c2 e7 bb a4 fd 1c 3b 21 bb 9d 3c 0a 13 23 3c
       -0.007072801 0.0023954893 0.01925427 0.00995327
000300 9e 34 c9 3b fd eb 5b bc c1 13 89 3c da 9d 7f 3b
       0.0061403057 -0.013422963 0.016733052 0.0039004
000310 ef bf 3a 3c 2b aa a1 3c 39 dc f5 bb 6c 5d 4d 3c
       0.0113983 0.019734463 -0.007503059 0.012534481
000320 e8 c3 74 bc fc 32 6d 3c 7d 5f ad 3b db 82 ce 3a
       -0.014939286 0.014477488 0.005290924 0.0015755551
000330 2e 10 0e bc 9f 9b 2d 3c 28 5f d3 bb 87 f9 a6 3b
       -0.00867085 0.010596185 -0.0064505525 0.005095664
000340 9f bb 7c 3c 3f a2 6f bc 4f fc b6 bb 5e 55 c4 3b
       0.015425592 -0.014626085 -0.0055842767 0.005991622
000350 1d 7e ad 3b e8 d1 bf 3a 31 fc 7d 3c 53 c9 ae bb
       0.005294575 0.00146347 0.015502022 -0.0053340583
000360 e6 08 85 3b 71 39 2f 3c be f7 39 bb ab ce 39 3c
       0.0040598987 0.010694847 -0.0028376426 0.011340777
000370 e4 c1 46 3c 44 af f6 3b 99 1f a0 bb 4b 75 74 3c
       0.012131188 0.0075282175 -0.0048865792 0.014920543
000380 74 5e 41 bc 55 d5 1c 3c 3f da d5 3b ca 98 58 3c
       -0.011802305 0.009572347 0.006526261 0.0132200215
000390 50 f1 86 bc ac fc ee 3a b4 af 99 bb 41 d4 4b 3c
       -0.016472489 0.0018233261 -0.004690135 0.012440742
0003a0 58 dd 9d 3b 4a f9 40 bc ef 5e bf 3b 32 94 77 3c
       0.004817646 -0.011778185 0.0058401744 0.015111016
0003b0 d7 1c 9f 3c 7d 05 e4 3c b2 50 87 3c 30 a4 9a 3c
       0.019422932 0.027834648 0.01651797 0.018877119
0003c0 74 81 83 3c c2 fe c9 bb fc be 81 3c 57 6e bf 3b
       0.016052939 -0.0061644027 0.015838139 0.005842011
0003d0 a1 fa a5 3c 1c 53 3c 3c b9 78 89 3b c6 9a 19 3c
       0.02026111 0.011494424 0.0041952995 0.00937528
0003e0 2f b6 8d bb a7 2a 46 3c 63 d8 f0 3b 26 d7 d4 bb
       -0.0043246965 0.01209513 0.007350014 -0.0064953743
0003f0 81 59 df 3b c4 c2 91 bc b7 48 26 bc e5 37 04 3c
       0.0068160896 -0.017793067 -0.0101491725 0.008069967

bias f4 [128]
000000 bf 03 4d 3c 95 7d a2 ba 57 85 30 bc 9c 25 5b ba
       0.0125131 -0.0012397046 -0.010773978 -0.0008359791
000010 fd b4 0f bb 35 4a cd 3b 26 d9 a7 3c 37 8c b4 3b
       -0.0021927946 0.0062649497 0.020489287 0.005509879
000020 f0 47 d9 3b 2d ff 78 3c e8 92 41 3c fd 8a 2f 3c
       0.00663089 0.015197557 0.01181481 0.01071429
000030 a0 63 f3 3a f4 92 9e bb b2 a5 9e bb 78 01 3c 3b
       0.0018569119 -0.0048392955 -0.0048415298 0.00286874
000040 45 2f 58 bc ff 8f b3 3b b0 bc f0 ba 74 55 bc 3b
       -0.013194864 0.005479812 -0.001836678 0.0057474915
000050 f5 e0 41 bc 78 0f f4 3b d9 37 60 bc 2a f3 29 3c
       -0.011833419 0.007448133 -0.01368519 0.010372916
000060 b2 9a 03 bb 52 76 52 3c 72 b4 45 bc 33 0b bc bb
       -0.002008122 0.012845593 -0.012066947 -0.0057386397
000070 4f a1 1e 3c 34 15 86 3c 26 a0 6c bb 59 95 84 bc
       0.009682014 0.016367532 -0.0036106198 -0.016184496
000080 b5 42 33 bc 75 d7 7a bc 68 e6 b8 3b 29 c4 89 bc
       -0.010941197 -0.015310158 0.005642701 -0.01681717
000090 7c 14 22 bb 4c 43 39 ba 89 bb 90 3b 9b e8 50 bc
       -0.0024731448 -0.0007067218 0.004416887 -0.01275077
0000a0 b4 93 e1 bb 84 eb 4c bb 9e 6c 68 bc db fd 27 3c
       -0.0068840627 -0.0031268308 -0.014186053 0.010253395
0000b0 2e eb 7f bc ce 34 a3 bb e5 87 87 bc 30 b9 8d 3c
       -0.015620036 -0.00498066 -0.016544292 0.017300218
0000c0 1f 82 b7 3b 07 ad 41 3c 26 18 48 3c f1 c3 09 bc
       0.0056002284 0.011821038 0.012212789 -0.0084085325
0000d0 1b 49 12 bc 27 0a f6 3a 2c 37 0f 3b 03 77 17 ba
       -0.0089285625 0.0018771336 0.0021852953 -0.0005777927
0000e0 06 aa 55 3c 26 68 1e 3c fc b6 34 bc 0f 29 25 bc
       0.013041025 0.009668386 -0.011029955 -0.01008059
0000f0 e4 96 85 3c 4d a4 17 bc a9 9a 57 3c ee cb 64 3c
       0.016307302 -0.009255481 0.013159432 0.013964636
000100 60 d1 14 3c e0 de f2 bb 79 db 8e 3c 63 d0 26 3c
       0.009083122 -0.0074118227 0.017438637 0.010181519
000110 00 7a 65 3b 3d 6b ac 3a dd cf b8 bc 8a cf 56 bb
       0.0035015345 0.0013154518 -0.022560054 -0.0032777512
000120 f6 48 7a 3c ca 21 7b 3c b0 b7 74 3c a5 00 59 bb
       0.015276184 0.01532788 0.014936373 -0.0033111956
000130 ce 76 f3 3a e8 5f 0a 3c e0 06 3d bb 42 56 0e bc
       0.0018574835 0.008445717 -0.002884321 -0.008687558
000140 1b 39 37 bc e0 63 92 bb 85 ea a0 bc 5a 1a 20 bc
       -0.011183049 -0.0044674724 -0.019643078 -0.009771908
000150 ac 42 b8 bb 6a d1 6d bb 4e 6d 65 bc b1 56 60 3a
       -0.0056231823 -0.003628815 -0.014003111 0.000855784
000160 a5 9d f4 3b ce 74 83 bc 16 e0 3f 3c d8 19 7d 3c
       0.0074650818 -0.016046908 0.011711141 0.015448056
000170 96 72 67 3c cf 69 d9 3b 8b 0e 4b 3c 74 11 3b 3c
       0.0141264405 0.006634928 0.012393604 0.011417735
000180 1f 33 c9 bb aa 18 80 3c 7b 5d eb bb 55 2e 5a bc
       -0.0061401273 0.01563676 -0.0071827746 -0.0133167105
000190 17 56 17 3c b2 ee ea 3b a0 f3 46 3c ac aa 5a bc
       0.009236834 0.007169568 0.012143046 -0.013346355
0001a0 46 1c bb 3a 41 ca cc b9 6e 78 19 bc e4 f3 4d ba
       0.0014275394 -0.00039060603 -0.009367092 -0.0007856472
0001b0 58 3d 53 3c 22 5e ac 3b 01 5f 0c bc d4 c3 f8 bb
       0.012893043 0.005260245 -0.008567573 -0.007591704
0001c0 02 c2 0d bb eb 9d 3d 3c cf eb 46 3a 85 e2 91 39
       -0.002163053 0.011573295 0.0007588239 0.00027825325
0001d0 d5 a4 9a bc 41 f7 4f bc 00 1a d4 bb b2 4f 76 bb
       -0.018877426 -0.012693227 -0.006472826 -0.0037584123
0001e0 10 44 53 bc a4 36 bb 3b de c8 27 bb 30 fe 33 3c
       -0.012894645 0.005713301 -0.0025601904 0.010985896
0001f0 76 ef 53 3b 30 57 37 bc c1 fa db bb e2 85 46 3b
       0.0032338775 -0.011190221 -0.006713242 0.0030292203

weight f4 [2, 128]
000000 1b a6 49 3d 98 d3 c2 39 97 4c 86 bc d5 b4 e4 bb
       0.049230676 0.00037160213 -0.016393943 -0.0069795647
000010 62 96 23 bd 02 20 7f 3c e2 43 68 3d 54 d5 b8 bc
       -0.039938338 0.015571596 0.056705363 -0.02256266
000020 01 f3 27 3c 1a a1 22 3d dc 24 41 3d 57 9e 41 3b
       0.010250808 0.03970442 0.047154292 0.002954384
000030 5f 7a da bc 22 5a 67 bc e2 76 58 3c 46 19 94 3c
       -0.02666968 -0.01412061 0.013211938 0.018078458
000040 5f 90 a5 3c cb 7f 5b bc 37 29 81 bc 95 31 8e 3d
       0.020210443 -0.013397167 -0.015766723 0.06943051
000050 fb 7c ab 3b 29 2d aa 3c 9e 12 94 3c 4e d2 34 bd
       0.0052334047 0.020773487 0.018075284 -0.044145875
000060 4b 80 fd 3c 95 44 91 bd d9 63 f6 bb a3 6c 59 3d
       0.030944964 -0.07093159 -0.007519227 0.05308212
000070 19 a6 14 3d f5 47 1a 3d 73 c5 7b 3d 24 ed c5 3b
       0.036291216 0.03766628 0.0614676 0.0060402323
000080 b6 3f 8b bd 41 e9 3e 3c c8 e0 41 3d 93 0e 39 3c
       -0.06799261 0.011652292 0.04733351 0.011294979
000090 da 64 ea 3b 58 77 19 3c 0d 1a e1 3c 54 df 83 3c
       0.0071531357 0.009366833 0.027478242 0.016097702
0000a0 6d d8 87 3c 4a 47 08 3d 95 ea 88 bb 2b 38 ae 3c
       0.016582692 0.03327111 -0.004178355 0.021267017
0000b0 c6 1b 00 3d a4 a1 f9 3c 35 f8 f1 3c c5 54 9a 3d
       0.031276487 0.030472584 0.0295373 0.075357
0000c0 0c 74 c2 b9 6e 74 ca bc e0 29 ac 3d 30 d8 bb bc
       -0.00037089025 -0.024713721 0.084064245 -0.022930235
0000d0 66 cc e2 3c a1 75 c7 bc 88 68 d9 bd c0 b1 ad bd
       0.027685355 -0.024348082 -0.10615641 -0.08481169
0000e0 2c a9 40 bb c0 89 3e bd 6e 2b 7e 3c 69 d6 b2 3c
       -0.002939771 -0.046518087 0.015513284 0.021830754
0000f0 e3 48 af bd c4 ed 21 3c 5b 42 bf bc 66 7b d9 ba
       -0.08558824 0.009883348 -0.02334707 -0.0016592562
000100 61 4d 5c 3d 63 a2 37 bd d5 24 7e 3d 64 12 00 bc
       0.05378473 -0.0448326 0.062046845 -0.007816885
000110 e3 6a 82 bd 0f c6 6e 3d da 5f c6 3c ef ff d1 3c
       -0.06368043 0.058294352 0.024215627 0.025634734
000120 75 38 69 3c ac d7 0a 3d 07 bd 9a 3d 8e 26 36 3d
       0.014234652 0.033897087 0.07555585 0.044470362
000130 9f a3 1e bc 33 83 9f 3c fa 64 7b 3d 25 bb e0 bc
       -0.009682565 0.01947174 0.061375596 -0.027432987
000140 4e 00 34 3d d4 0c f2 bb 68 7d f6 3b db fc 51 3d
       0.043945603 -0.007386783 0.007522274 0.051266532
000150 d9 47 e3 bc ba 85 83 3d 93 5a 42 3b 5f 07 04 bd
       -0.02774422 0.06421991 0.0029656037 -0.032233592
000160 1b 7a c9 3b e3 82 21 bc 58 50 0e bc f1 8a f8 bc
       0.0061485893 -0.009857866 -0.008686148 -0.03033969
000170 9f d6 0d 3d 54 a8 8b bd 6f e4 2a 3d c7 0c c7 3c
       0.034628507 -0.068192154 0.041721758 0.024298085
000180 56 34 e0 3c 15 b8 33 3d 1c 40 d8 3c a5 56 82 bc
       0.027368706 0.043876726 0.026397757 -0.015910456
000190 02 c1 41 bd 8d a8 60 bc b5 9f 93 3b c2 c8 1c bd
       -0.047303207 -0.013712061 0.0045051225 -0.038277395
0001a0 e6 40 70 3b 35 fd 25 3c 1a c3 cc ba 2d ef 5d 3b
       0.0036659776 0.01013117 -0.001562211 0.0033864484
0001b0 cc 81 10 bd 44 6e 33 bc 02 22 dc 3c 64 39 f0 bb
       -0.035280034 -0.010951582 0.026871685 -0.0073310602
0001c0 e4 0a 7f 3c e2 d4 13 bd 79 07 59 3d cc da 34 bc
       0.015566561 -0.036091693 0.052985642 -0.011038493
0001d0 6d 64 ca 3c a5 df 87 bc 3b 75 53 3d 8d e7 08 3d
       0.02470609 -0.016586134 0.05162547 0.03342395
0001e0 1a ee 28 bd b9 e7 08 bc 41 cc 4f bd 8b 2c 0f 3d
       -0.041242696 -0.008356028 -0.0507319 0.03495459
0001f0 b9 2e 17 bd 16 0d 55 bd 44 05 0b bd 41 1e 5d 3c
       -0.036909793 -0.052014433 -0.03394057 0.013495983
000200 e8 aa c4 bc 22 37 3a bc 0e 2f 49 3d 76 3e af bc
       -0.024007276 -0.011365684 0.04911714 -0.021392088
000210 11 87 38 3d 5b f7 ba bc 4e fb 01 bd cf ba 42 bc
       0.045050684 -0.022823026 -0.031733803 -0.011885359
000220 60 42 b4 3c 88 f3 16 bd c1 0e 05 3c 76 f8 e5 3c
       0.022004306 -0.036853343 0.008121193 0.028072577
000230 df d8 c6 bc 2f 30 b0 ba 48 f2 86 3b 3a 37 1c bd
       -0.024273334 -0.0013442094 0.0041182376 -0.038138606
000240 0b d1 a3 3b 92 d0 83 bc a2 d8 e4 bb f6 27 9d bd
       0.004999285 -0.016090665 -0.0069838325 -0.076736376
000250 8d 0f c4 3b f4 93 04 bd 58 a8 55 bc 63 a6 57 3d
       0.005983299 -0.03236766 -0.013040625 0.052648913
000260 c2 6d bf 3b f4 bd 99 3d 88 8c 19 bc c9 7f a1 bd
       0.0058419416 0.07506934 -0.009371884 -0.07885701
000270 fd 15 a3 bb 04 01 e8 bc c4 b9 69 bd e9 ea 67 bd
       -0.0049769864 -0.028320797 -0.057061926 -0.056620512
000280 c4 ab 7a 3d 07 fa bb bc 1a 14 22 3b bb c0 55 3c
       0.061198965 -0.02294637 0.002473122 0.013046439
000290 28 ae 1a bc 07 25 8f 3c 63 01 82 3c 6e 87 d2 bb
       -0.009440936 0.01747371 0.015869802 -0.006424836
0002a0 5e 8b 64 3c 3a 5f 7e bd 4f f5 82 bb e8 52 f5 bc
       0.013949243 -0.062102534 -0.003996528 -0.02994676
0002b0 ca f6 f5 3c a2 ec 4f bd 84 60 2f 3c c0 a3 aa bd
       0.030024905 -0.05076278 0.010704163 -0.08332014
0002c0 7b 70 96 3c a6 ab 9e 3c 40 89 59 bd 4e 81 09 3d
       0.018364182 0.019368958 -0.053109407 0.03357058
0002d0 76 cd d3 bc 24 d0 16 3c da cb d7 3d dd 08 c4 3d
       -0.025854807 0.009204898 0.105369285 0.09572003
0002e0 22 b9 86 bc 90 79 88 3d 1f fd 40 3c e8 3a 99 bc
       -0.0164457 0.06663811 0.011779099 -0.018704847
0002f0 60 16 e6 3d db 2f da 3c 38 c8 2d bc 98 e2 59 3c
       0.112347364 0.026634147 -0.010606818 0.013298653
000300 5a 50 58 bd e5 9e a9 3c 6f 26 4a bd 31 28 11 3d
       -0.052811004 0.02070565 -0.04935306 0.03543872
000310 9a cb 3a 3d 35 ed 31 bd 79 4a c0 3a 9d 44 c0 bc
       0.045604326 -0.04343911 0.0014670632 -0.023470217
000320 7b 8a ff 3c c2 cd 19 bd 0c 98 d6 bd aa 91 91 bc
       0.031193962 -0.03754974 -0.104782194 -0.017769653
000330 1b 2a 7d bc 6e 6e f2 3b 60 bf b6 bd fb 17 46 bc
       -0.015451933 0.007398418 -0.08923221 -0.012090678
000340 80 06 ea 3b ee c0 da bc 93 6e d6 3a 75 25 c6 bc
       0.007141888 -0.026703324 0.0016359858 -0.024187783
000350 7f 00 ca ba 39 64 1f bd ca 14 a1 ba 56 16 3e 3d
       -0.0015411525 -0.03891394 -0.0012289521 0.04640802
000360 03 09 61 3c 71 ba 82 3c b6 46 d5 3b fd 29 d6 3b
       0.013735059 0.015958043 0.0065086735 0.006535767
000370 a6 49 83 3b cb 93 50 3d 7b 90 10 bd 64 d5 7a bb
       0.0040065823 0.050922196 -0.035294037 -0.0038274163
000380 26 83 f9 3b 34 19 14 bd 70 b0 5e bd bb a4 0e 3c
       0.007614511 -0.036156848 -0.054367483 0.008706267
000390 9a fb 42 3b ba a7 08 bd d0 3a db 3a 68 af 03 3d
       0.0029752017 -0.03336308 0.0016725902 0.032149702
0003a0 0e d2 14 bc 91 0e 44 bb 2e b0 ae 3c 60 50 09 bd
       -0.009083284 -0.0029915909 0.021324243 -0.033523917
0003b0 d1 77 fc 3c 77 e6 ba 3c e6 94 8c 3b 65 55 08 bb
       0.030818852 0.022814972 0.004290211 -0.0020802852
0003c0 7c ec 49 3c e1 94 85 3d 28 4f 8b bd 37 cf 9f 3c
       0.012324449 0.06522537 -0.06802207 0.019507987
0003d0 88 87 ea 3c 2c 9b b0 3c a3 39 ca bc f1 04 6e bd
       0.02862908 0.021558367 -0.024685686 -0.05811018
0003e0 df 1e 8b 3c 39 0f 45 3c eb dd bf 3d 0b 5b 73 bd
       0.016982494 0.012027555 0.09368499 -0.059412997
0003f0 98 4f 98 3c 77 13 9b 3d 49 f3 89 3d 9c a6 3f bd
       0.01859264 0.07572072 0.06735856 -0.04678975

bias f4 [2]
000000 8c bc b4 3c 09 74 14 bd
       0.022062562 -0.036243472

momentum_buffer f4 [8, 3, 5, 5]
000000 ff da 86 3e 6e d1 8f 3e 0e cb e4 3d 2b f6 96 3d
       0.26338956 0.2808947 0.11171542 0.073711716
000010 16 1a f1 bd 78 9a 0f 3e 4b e8 87 3d 40 88 b9 3d
       -0.117725536 0.14023769 0.06636103 0.09059191
000020 44 6d 3c 3c 85 83 94 be c8 2d 35 3e 7a ea c4 3d
       0.01150066 -0.2900659 0.17693245 0.09615035
000030 17 b4 a5 3d 40 c4 8c bd a5 c2 53 be f0 ed e7 3d
       0.0809099 -0.06873369 -0.2067972 0.1132468
000040 5c 48 36 3e e5 44 74 3d b7 0d 94 bd 7b b2 0f be
       0.1780104 0.059636015 -0.072291784 -0.14032929
000050 0b 10 be 3d 79 19 d6 3d a0 1f c9 3b 09 8b 25 3d
       0.09280404 0.10454077 0.006137803 0.040415797
000060 4e 06 0d be 36 ed b5 3d 75 69 e0 3d dc f8 6d 3c
       -0.13771936 0.08883135 0.10957614 0.014524665
000070 2c 7a a9 bd bb dd 83 be 5d 7a 3a 3e 30 1c 6f 3b
       -0.082752556 -0.25755104 0.1821074 0.0036485307
000080 2f aa a6 3d 8a 86 d2 bd 9d 93 8a be e1 a7 03 3e
       0.08137929 -0.102795675 -0.27065745 0.1285701
000090 63 ac aa 3d 6a b1 8f 3d 51 63 e9 bd 60 5c 9c be
       0.083336614 0.07016261 -0.11395896 -0.30539227
0000a0 64 84 d5 3d c6 a4 07 3d cc 79 09 3d e0 42 40 bb
       0.10425642 0.033116125 0.03356342 -0.0029336736
0000b0 1d bb 1c be 01 13 f5 bc 53 1d 8e 3d c4 17 4b bd
       -0.15305753 -0.029916288 0.06939187 -0.04958321
0000c0 12 02 be bd da f7 67 be ef 45 09 be c6 79 79 bd
       -0.09277739 -0.22653142 -0.13405584 -0.060907148
0000d0 0c 4d 21 be a6 0b 10 be ce 81 65 be 4c 25 28 bd
       -0.15752047 -0.14066944 -0.22412798 -0.041051194
0000e0 f0 e7 1f bd ba 58 17 be 46 a7 1d be 69 03 cb be
       -0.039039552 -0.1477994 -0.15395841 -0.3965104
0000f0 de 19 f0 bd ec 5a 38 be 16 d3 0d be 5a 24 91 be
       -0.11723684 -0.18003434 -0.13850054 -0.28348047
000100 6b 46 ae be 4e 1b 0f be 34 6f 17 bd ea e0 6b be
       -0.340381 -0.1397526 -0.036971286 -0.23035017
000110 c0 8f 8e be 6b e4 c0 be 0b c5 ad bd 93 57 10 be
       -0.27844048 -0.3767427 -0.084848486 -0.14095907
000120 43 ad 07 be b4 30 be be 26 56 ca be 03 f1 19 be
       -0.13249688 -0.37146533 -0.3951885 -0.15033345
000130 69 b8 14 be fb 17 98 bd fe 1c b4 bd 4a 01 d1 3c
       -0.14523472 -0.07426449 -0.08794592 0.02551331
000140 79 4f 9d bd 59 b1 a5 bd 34 4c 32 3d f9 81 b6 bd
       -0.07681174 -0.08090467 0.043529704 -0.08911509
000150 e1 cf 20 3d 7e 7c 3b bc ab f4 d9 3d 51 25 79 3c
       0.03926075 -0.0114432555 0.1064237 0.015206651
000160 61 58 87 3c 0d e9 9c 3d 9c e4 4b bb a0 22 56 bd
       0.016521635 0.076616384 -0.0031111604 -0.052279115
000170 cb fe 83 3d 01 da 04 3e a5 35 93 bc c5 91 09 be
       0.06445082 0.12973787 -0.017969916 -0.13434513
000180 de c0 01 bd 97 3c 41 be 17 03 9c bd 2a e2 a4 bd
       -0.031678073 -0.1887077 -0.07617777 -0.0805095
000190 cc 9a 29 bd 20 9e 1c 3d 88 41 22 bd 62 40 d5 bd
       -0.04140739 0.038236737 -0.039613277 -0.10412671
0001a0 ed dd 1e 3d 04 f4 49 bd fb 59 58 bd 2d eb b0 bc
       0.038785864 -0.049304977 -0.052820187 -0.021596516
0001b0 76 e1 af bd 0f 12 eb bc 83 e8 08 3e 33 d0 b9 3d
       -0.08587925 -0.028695134 0.13369946 0.09072914
0001c0 6d 7a 15 3e 9c b0 fd bb ac 41 55 3c 24 53 dc bc
       0.14597483 -0.0077420007 0.013016146 -0.026895113
0001d0 25 57 c5 3c e9 6f 7d bd 21 17 3d 3d 62 95 35 3d
       0.024089405 -0.061874304 0.046164636 0.044331916
0001e0 f6 bb 52 3c 65 16 a0 bd 17 3d a6 bd c6 1c ef bc
       0.012862196 -0.078167714 -0.08117121 -0.029188525
0001f0 e2 2b 39 3d 5b 92 ce 3d 62 d5 08 3e ce 7f 4c 3d
       0.045207866 0.10086509 0.13362649 0.04992657
000200 03 a0 48 3e 65 de 10 3e 81 e2 53 3e d4 67 32 3e
       0.1959229 0.14147337 0.20691873 0.1742242
000210 4c 64 71 3d ba 4f 39 3e dc e5 de 3d 46 ff 07 3d
       0.05893354 0.1809682 0.10883686 0.033202432
000220 79 ee 21 3d db ea 9a 3d 08 32 3d 3e e8 73 01 3e
       0.039534066 0.075643264 0.18476117 0.12641871
000230 8e 4d 99 3d c0 f1 13 bd d3 af 23 3e 72 30 8f 3d
       0.074854955 -0.036119223 0.1598504 0.06991662
000240 40 68 1c 3e 28 4a a7 3d ed 73 94 3d 88 d7 a4 3d
       0.15274143 0.08168441 0.072486736 0.08048922
000250 ab 27 53 3e 69 ff ed 3d 2d a4 4f 3e 12 30 28 3e
       0.20620601 0.11620981 0.20277472 0.16424587
000260 f6 9b 29 3e aa c4 03 3d b2 29 45 3e d0 a8 c8 3d
       0.165634 0.032169975 0.19254187 0.097978234
000270 2f 27 7c 3e 6d 9a 5f 3e 09 74 16 3e c9 f5 ae 3c
       0.24624322 0.21836253 0.14692701 0.021357434
000280 f1 a7 75 3e 1b 98 49 3e 36 ab 51 3e 71 d8 da 3c
       0.23989846 0.1968693 0.20475468 0.026714535
000290 30 55 da 3d 08 06 3b 3e f2 78 18 3e e1 5c 87 3e
       0.106607795 0.1826402 0.14889887 0.26438048
0002a0 e3 07 0e 3e ea fa e9 3c 0b d8 59 3e e9 7f 82 3e
       0.13870196 0.028562028 0.2127382 0.25488213
0002b0 c5 f4 87 3e 44 cb e8 3d 91 d9 0f 3d f6 ff bc 3d
       0.26553932 0.11366895 0.035119597 0.09228508
0002c0 86 4b 8c 3d 84 ab fc 3d a6 55 b4 3d fa bc d2 bd
       0.068503425 0.123374015 0.08805399 -0.10289951
0002d0 56 76 1c 3e a7 4e 44 3e e6 78 fa 3d ed d3 d2 bc
       0.15279517 0.19170628 0.12230091 -0.02573582
0002e0 14 78 b7 3c d0 e4 19 3e 18 ce 1f 3e 06 91 b0 3d
       0.022396125 0.15028691 0.15605962 0.08621411
0002f0 a8 25 d4 bc d2 0f 5a bd f5 3d de 3d f8 23 b8 3d
       -0.025896862 -0.053237744 0.10851661 0.089912355
000300 a3 2f 0d 3e a9 0e 94 3d 93 db 86 bd d7 f2 12 3e
       0.13787703 0.07229359 -0.06584849 0.14350449
000310 4a ac 21 3e 37 48 a2 3d dc 15 8a 3c c2 53 f5 bc
       0.1578838 0.0792393 0.016856126 -0.029947165
000320 44 83 a6 bc e3 69 34 3d f3 40 d5 3d 2b e6 a9 bc
       -0.020326264 0.044046294 0.10412779 -0.020739635
000330 ef 95 a2 bd f4 5b 3c 3c 96 fb 78 3c 66 5a 74 bd
       -0.07938754 0.011496533 0.0151967015 -0.059656523
000340 12 1d b6 bd d4 a5 73 bd b5 4a b6 3d 33 a4 af 3d
       -0.088922635 -0.059484318 0.08900968 0.085762404
000350 fd 28 89 bd 17 f5 05 be e8 a7 0c be 60 6a 11 3e
       -0.06697271 -0.13081776 -0.13735926 0.14200735
000360 41 f9 3d 3d 15 07 31 bd ce 1d 52 bd 0b 64 1f be
       0.046380285 -0.043219645 -0.051297955 -0.15565507
000370 e0 f0 ee 39 e6 03 08 3e c8 8e 75 bd 47 cd dd bd
       0.00045574363 0.13282737 -0.05995062 -0.10830169
000380 ae 54 67 be 4a b5 1e 3d a7 d8 b6 3d d8 c6 ca 3d
       -0.22590896 0.03874711 0.08928042 0.09901208
000390 13 0e 73 3d 5f fc a4 3d b3 53 be bd b3 82 c5 3d
       0.059339594 0.080559485 -0.09293308 0.096440695
0003a0 5c 68 dc 3d 7c d5 45 3e 52 35 38 3e 35 7e 7a 3d
       0.107620925 0.19319719 0.1798909 0.061155517
0003b0 9b a0 49 3d 94 d9 57 bb d8 6e 3d 3c 7a 06 2c 3c
       0.04922543 -0.0032936083 0.011562072 0.010499591
0003c0 22 ef c6 3d 11 da 70 bb 7a 87 1b 3d 8f 3d 11 3d
       0.0971358 -0.0036751071 0.037970997 0.035459097
0003d0 f2 39 9b 3d 5a 12 b7 bc 69 24 26 bd 7a c1 4e 3d
       0.075794116 -0.022347618 -0.040562067 0.050477482
0003e0 08 f4 05 3b 40 60 e5 3d e0 b9 93 bd 46 86 5f bd
       0.0020439643 0.11199999 -0.07213187 -0.054571413
0003f0 3a be 78 3d 20 79 ca 3d 70 a5 34 3e b4 ac e4 bd
       0.06072829 0.09886384 0.17641234 -0.11165753

momentum_buffer f4 [8]
000000 21 2b fc 3d f6 26 d0 bc 44 21 5f 3d 51 2d 73 be
       0.12312914 -0.025409203 0.054475084 -0.23747756
000010 26 b4 f4 bd 57 bf a8 be 23 92 93 bd 0e 7a bb be
       -0.11948423 -0.3295848 -0.07205608 -0.36616558

momentum_buffer f4 [16, 8, 5, 5]
000000 ef 72 f7 3c 61 e1 3a 3d 85 1f e0 3c 5f bc 63 bd
       0.030206172 0.045625094 0.02735878 -0.055599567
000010 e8 ab 70 bd cc 12 50 3d bc 89 24 3c ab 49 0d bc
       -0.058757693 0.050799176 0.010042604 -0.008623521
000020 b7 60 24 bc ce f2 8a bd 43 16 d9 bc 0a b8 80 3d
       -0.010032824 -0.067845926 -0.026499873 0.06285103
000030 b0 33 a2 bc 6d 59 36 bc 51 0a 85 bd bc ba 0d bd
       -0.019800037 -0.011129719 -0.06496108 -0.034601912
000040 c4 3b a5 3b da 88 0a bd 10 c7 c2 bb 26 d3 ae 3c
       0.005042525 -0.033821918 -0.0059441403 0.021340918
000050 16 5b 75 bd 2f d3 0d 3d 3e 68 0a bd 4d 49 ce bc
       -0.05990132 0.03462523 -0.03379082 -0.025181437
000060 27 b5 f0 3c d6 4c e4 3c 67 c9 05 bd ed 11 19 bd
       0.029383255 0.02786867 -0.032662775 -0.03737061
000070 2d d9 8b bd b2 c9 32 bd 50 66 a7 bd 38 0b 1c bd
       -0.06828532 -0.043649383 -0.081738114 -0.038096637
000080 ea 4b 54 bc 37 ce a7 bd f5 15 93 3c e3 de f7 3b
       -0.012957552 -0.08193629 0.017954806 0.007564412
000090 7a 63 bc bd 8a 8a 87 bd b6 3a 7d bc 82 f9 4f bd
       -0.09198661 -0.06618221 -0.015455892 -0.05077506
0000a0 9a 07 45 bd 6f 58 98 bd 33 ca 92 3b e5 8b 90 bd
       -0.048102953 -0.07438742 0.0044796704 -0.07057933
0000b0 77 f0 4c 3c 0e e7 1f bd ee 7f f8 bc 72 53 1f 3c
       0.012508503 -0.03903871 -0.03033444 0.009724485
0000c0 cc 3a 4f bd c4 60 90 bd 39 00 b1 bc 2b 19 10 3d
       -0.050593182 -0.070497066 -0.021606551 0.035180252
0000d0 de 55 78 bd 88 e7 15 3b 87 3a 8c bd 79 d2 97 3c
       -0.060628764 0.00228736 -0.06847101 0.018532978
0000e0 63 33 0d 3c 16 69 80 bc 9e d5 83 3c d4 c4 52 bc
       0.008618209 -0.015675109 0.016093072 -0.01286431
0000f0 18 ac e4 3c 78 65 89 bd 7c af 7f bc ff c7 8f 3c
       0.027914092 -0.06708807 -0.015605804 0.01755142
000100 f2 d1 3b 3d 88 cd 0c 3d 44 60 49 bd b5 fe 31 3d
       0.045854516 0.034375697 -0.04916407 0.0434558
000110 2a 91 89 bc 42 34 b6 bc ba 89 61 bd 9c 04 38 bc
       -0.016792852 -0.022241715 -0.055062987 -0.011231568
000120 e2 cf 1b 3d 9c 05 07 3b 9c b9 2d bd bf 2d 2c 3c
       0.03804005 0.0020602709 -0.04241334 0.010508954
000130 aa 9e d9 bc eb 0f 73 3d 83 ae 78 bd 84 0a a6 bc
       -0.026564915 0.059341352 -0.060713302 -0.020268686
000140 12 6c 99 bd 8d 01 22 bd 26 33 3c 3c ad 19 36 3d
       -0.07491316 -0.03955226 0.011486804 0.04445808
000150 c9 95 8b ba c5 a6 1f 3d 9c f0 e3 bb 3e 3b 93 3c
       -0.0010649498 0.038977403 -0.006956173 0.017972585
000160 eb 2a 02 3d 18 a0 04 3d b1 e5 71 bd 74 40 12 3d
       0.03177921 0.03237924 -0.05905694 0.035706
000170 bd 78 b2 3c 6d 07 34 bd ea c1 41 bd f9 3e 93 bd
       0.021786088 -0.043952394 -0.04730407 -0.071897455
000180 0e 8d 1f bb 3a 2c 89 bd 37 51 a1 3c 34 37 0b 3c
       -0.002434555 -0.06697889 0.019692047 0.008497048
000190 08 9a 8b bd 78 fe a6 3b 28 5d 7e bc a7 ad bf 3c
       -0.068164885 0.005096253 -0.01552514 0.023398234
0001a0 aa fc c1 3c 40 36 a0 bd 4f 7d 43 3d 20 0d 1c 3d
       0.02368005 -0.07822847 0.047726925 0.038098454
0001b0 1c e0 29 3c 6b 73 8d bd 20 1c 09 bd 44 2d 02 bd
       0.010368373 -0.0690678 -0.033474088 -0.03178145
0001c0 fb 71 e7 bc 94 06 b3 3c 38 78 0d 3c e9 c4 10 3d
       -0.028252592 0.021853723 0.008634619 0.03534404
0001d0 a1 81 0f bd d6 c3 0a 3c c7 9a 3d 3c 0b 92 83 bd
       -0.035035733 0.0084695425 0.011572546 -0.0642434
0001e0 ae c2 92 bd 22 9c 22 bd 02 c2 f8 3c cd 13 8c bd
       -0.071660385 -0.03969968 0.030365948 -0.06839714
0001f0 52 06 83 bd 07 49 aa 3c 12 0c c8 3c b7 f8 42 3d
       -0.0639769 0.020786775 0.024419818 0.047600474
000200 ba 20 41 bd 1e 99 57 bd 29 61 78 3c 4e b2 26 3d
       -0.04715035 -0.05263626 0.015159884 0.04069739
000210 8b f9 fd 3c 65 bd 41 3b d3 d0 4a 3c 9d c7 23 3d
       0.03100278 0.002956235 0.012378889 0.039985288
000220 ed 63 73 bd 30 bc 25 bd 2e f0 00 3d 5d 30 5f bd
       -0.05942147 -0.040462673 0.031479053 -0.054489482
000230 80 f4 55 bd 4a c9 f2 3c 0a 46 13 3c d2 26 e8 3a
       -0.052235126 0.029636998 0.008988867 0.0017711765
000240 2f 9e 3c bd 15 33 b3 bc bd 3a 32 3d eb c6 44 bd
       -0.046049293 -0.021874944 0.04351305 -0.048041265
000250 fd 51 1b bc 67 84 95 3c f5 93 43 bd b7 e2 62 3d
       -0.009479997 0.01825161 -0.047748525 0.055391993
000260 15 30 1c bd a6 5c 96 bc d0 56 c7 bc de 31 24 bd
       -0.038131792 -0.018354725 -0.024333388 -0.04008662
000270 42 67 87 bd 36 c2 0c 3d c2 97 8f 3c 17 c7 72 bd
       -0.06611492 0.0343649 0.017528418 -0.059271898
000280 4d fb 35 bd 4b 51 70 3d 3d 40 d0 3c e4 3c ad 3c
       -0.044429112 0.058671277 0.025421256 0.021147199
000290 a0 56 25 bd 39 fb e6 bc c9 03 3c bc 68 f0 86 bc
       -0.040365815 -0.028195964 -0.011475512 -0.016472057
0002a0 2e 04 49 bd ca f0 10 3b 00 39 f7 b8 17 62 54 bc
       -0.04907625 0.0022116178 -0.00011788495 -0.01296284
0002b0 4b 74 29 3b 11 4e fc bc 38 ed 4c 3c eb db 06 3c
       0.002585667 -0.030798944 0.012507729 0.0082311435
0002c0 22 13 39 bd 3d cb 89 bd 41 46 99 3c d7 30 3a bb
       -0.045184262 -0.06728218 0.018710257 -0.0028410458
0002d0 9e a1 39 bd 09 f8 29 3d e4 85 30 bd bc 8d af 3c
       -0.045320146 0.04149631 -0.043096438 0.021429889
0002e0 78 67 6e 3c f6 82 75 bd c1 ba fd 3c be 25 8a bd
       0.014551036 -0.059939347 0.03097284 -0.0674548
0002f0 fc 98 36 bd 94 a4 9b bc e9 bd 61 bd 18 98 4c 3d
       -0.04457949 -0.018999375 -0.055112753 0.049949735
000300 20 5f a6 bc 3c 4f 94 3c 9d d0 77 bd 23 f0 89 3c
       -0.020309031 0.018104188 -0.060501684 0.016838139
000310 0e 02 17 bd 8a 89 6d bd 5a e4 34 bb 32 59 bf 3c
       -0.036867194 -0.057992496 -0.0027601928 0.023357961
000320 c4 c9 5d 3e 29 15 73 3d a6 e9 0a 3e de 2c ee 3d
       0.21658999 0.05934635 0.13565692 0.116296515
000330 6d b6 85 3e 5a 69 4c 3e 1a 91 48 3e d6 d4 2c 3c
       0.26115742 0.19962063 0.19586602 0.010548791
000340 1b 53 d4 3d ce ba 82 3e d6 c2 1a 3d 70 04 70 3e
       0.103674136 0.25533146 0.037783466 0.23439193
000350 1a 35 60 3d 54 a3 fb 3d af 3d 57 3e 7b ee 9d 3d
       0.05473814 0.12287012 0.21019624 0.07711502
000360 f0 78 65 3e 92 db 4b 3d 94 fe d5 3d 10 8d ec 3d
       0.22409415 0.049769945 0.104489475 0.11550343
000370 f0 80 5b 3c 5a ff 35 3e c0 df 04 3e a6 42 fb 3c
       0.01339744 0.1777319 0.12975979 0.030671429
000380 1a 63 29 3c 43 b9 0e 3e 09 36 b4 3d 50 58 2a 3e
       0.010338569 0.13937859 0.08799369 0.16635251
000390 26 87 e4 3d 22 15 12 3e 17 f2 b0 3d 80 33 ad 3c
       0.1115859 0.14265874 0.08639925 0.021142721
0003a0 35 25 cc 3d 64 7c d1 bc 96 83 00 bc 28 86 0b bd
       0.09968034 -0.02557201 -0.0078438725 -0.03406349
0003b0 83 11 22 bc f0 cf 00 3b e8 e9 8d 3d 24 4c 99 3c
       -0.00989187 0.001965519 0.0692938 0.018713064
0003c0 fc 4b 85 3c 08 bb 7a 3d cd 00 12 3d fc 78 85 bd
       0.016271584 0.061213523 0.035645295 -0.065172166
0003d0 1c 5f 89 bd 56 d4 9c 3c e8 84 28 bd 7c 7f 07 3d
       -0.06707594 0.019144218 -0.041142374 0.033080563
0003e0 5e c5 70 3d b8 a4 52 bc 4e f1 58 3e 56 ca 7c 3e
       0.058781974 -0.012856655 0.211858 0.2468656
0003f0 7e 0e 85 3e c0 34 d7 3d 1a b3 69 3e 5b ae 45 3e
       0.2598762 0.10508108 0.22822228 0.19304793

momentum_buffer f4 [16]
000000 70 f9 ad 3c 60 6b 9d 3d 0c cf 81 bd 00 2e 1c 3e
       0.021237105 0.07686496 -0.06338319 0.15251923
000010 44 b5 77 bd 33 c4 4c bd 26 d3 02 bc 58 ab 74 bd
       -0.060475603 -0.049991798 -0.007984912 -0.05973372
000020 f1 90 26 3d 16 71 1d be 01 77 73 bd 26 50 61 bd
       0.04066557 -0.1537517 -0.059439663 -0.055008076
000030 d2 4c d7 bd 92 01 af bd 78 01 c1 bc cd 02 0f 3c
       -0.10512699 -0.085452214 -0.02356027 0.008728695
